model.pth (torch, 90280 bytes, 8 tensors)

conv1.weight f4 [10, 1, 5, 5]
00000000: 34c0 b7bd f791 873e 0f62 0c3e 698a 823e
00000010: 18fd 533e 7d03 903d 2503 353e 3430 1f3e
00000020: e3b0 4a3e 4c3f 543d f3d1 89bd ca2b 52bd
00000030: 364a 0cbc 7e0b 5ebd 1a98 143e af69 2dbd
00000040: 6041 3dbe 098a 92be 664f 65be 2260 5ebe
00000050: 6279 02be 7221 d6bd 0ccd b2bd 49c9 c1bd
00000060: 469e 94be 3ca2 833e 5c99 a33e 197c ca3e
00000070: f5aa 8a3e 1c04 f0bd 59b5 ffbd 053a db3c
00000080: 3f5d a83e f42c 5e3e ffff 933e a47d 59be
00000090: ec9d 663d 1980 e6bd 9580 523e 0f12 2a3e
000000a0: dea6 a4be 1454 d4bd 66cf 83be 197c c6bd
000000b0: 842f 443b 1f38 67be 4db9 bcbe 15a5 87be
000000c0: 7656 9dbd 98c4 90bd dd3a af3e 9381 c13e
000000d0: 16e9 373e 1827 93ba 985b 643e 87f1 d03d
000000e0: 4685 b4bc 60a4 8e3e 16b7 873e 8d1a 8f3e
000000f0: f4a7 1cbe d1a1 e9bb e8d9 ae3d b50c f43d
00000100: 8e0c 06be 1246 29be e0b7 143e ec22 e03c
00000110: 6b94 043e ae66 11bd 06f5 fa3c 27bd 913d
00000120: 8e13 023e 9bbf bb3d 220e 8dbe d372 043e
00000130: c9da 11be 3e9c 34be fb1c 48bd 90fa a3bd
00000140: d2d4 393e 0580 b5bd 0d45 6abe d685 793d
00000150: 95b4 afbd 3fac 473e 04f1 163e 77a3 18be
00000160: e696 343d a3b8 a03d 0f42 63bd 82a3 bd3c
00000170: 990c 303e afa0 1d3e ac6a a83c 28cf 733d
00000180: 0c04 aa3e 11e6 943d 445f 713e d21d 533e
00000190: 3024 17be e874 26be 89cd 683e 09d1 e33d
000001a0: bb7f 533e 12b7 fd3d d08b 553e fb76 bc3e
000001b0: dc9a c73e a0ac 24bd 02be de3d 2d9b 463e
000001c0: ceb1 3d3e 63bf 4b3e 9551 b5bd 02e9 30be
000001d0: 45e7 5dbe 17ae 78bd 09e2 613e 137f 58bd
000001e0: fb69 74bd 4161 87be dbbc 84be caa4 c1bc
000001f0: 0088 5c3e 1593 7c3e ef00 073c e92a 2e3e
00000200: cf58 733e 1b46 ae3d 204e 233e 7e95 843e
00000210: 27e8 733e 35bb c43d 29d5 39be e781 4dbe
00000220: c276 b7bd a9c4 b63c 5ca9 84bd 856a cb3d
00000230: e3eb e83b 2371 93bd 464d 193e 0b37 483e
00000240: bb37 923e e9ed c03d edb9 9dbd 882f 833e
00000250: 751d c53d c36b f43d b062 a2be 976b 8fbe
00000260: 0d2f 46be d3c1 bc3c 4ef8 a53e afca 93be
00000270: b94a 91be 4c82 373d 1b31 6b3e 7aa0 bb3e
00000280: 6dbb abbe 4da1 8ebd e6a2 943c 2ae0 903e
00000290: af04 0f3e 5caa 97be 2d4f afbd 79b0 8d3e
000002a0: e9b6 af3e 9ff7 713e 924f 083e 15ad 7e3e
000002b0: 802a 943e fe06 313e faaf 8ebd 58b6 d23d
000002c0: d226 c3bd 7cd3 64bd 151c 82be 3d2a 23be
000002d0: 68a0 02be 0327 d63d 15b3 8bbe 0d16 98be
000002e0: a09b 2bbe 6efd 6fbd 9363 413d 52d0 dbbd
000002f0: 1cee 10be ba39 1ebc 7907 6b3e a0da 95bd
00000300: b467 783e 6d04 a73e d666 bb3e b322 3cbd
00000310: 6854 503e b259 a13d fea2 c33e a9bd 3b3d
00000320: 5132 773e 0712 223e ccb7 b8ba c278 16be
00000330: d9ae 22be 36b7 753e 81ee 4a3e ef60 053d
00000340: e116 c6be 8a97 9bbd e972 ad3e 995f b33e
00000350: f646 f03d a985 a0be 4647 7ebe ff61 a33e
00000360: 24f8 c03c 2df9 7f3e 68e1 71be f691 7fbe
00000370: f4bb 553e e2d3 623c e8d5 ae3c 419e ba3d
00000380: 960f a73d 3492 2b3e b6bf a7bb 6b8d 84bd
00000390: 6f02 9a3e 04bb 3f3d 41bf dabd cfc9 9f3d
000003a0: e992 febd 2d3e 0d3e 3e1c 433e d8b3 5dbe
000003b0: d600 7abe 6ade f2bd db74 13bd b14e f5bc
000003c0: 70b8 1fbe 6dd5 f1bd 528d 9fbe 2f26 8dbe
000003d0: 4cba 74be d6be 353e 9e6c 1b3e 550c c7bd
000003e0: 4dfa 93bd 2f26 1bbd
-0.08972207 0.2647855 0.13709281 0.25496224 0.20702016 0.07031915 0.17676981 0.15545732
0.1979404 0.051818177 -0.06729498 -0.05131129 -0.008562615 -0.05421018 0.14511147 -0.042337116
-0.1848197 -0.28620937 -0.2239357 -0.2171636 -0.12741616 -0.10455598 -0.08730516 -0.0946222
-0.29027003 0.25709713 0.3195294 0.39547804 0.27083555 -0.11719534 -0.12485761 0.026761064
0.3288364 0.21696836 0.28906247 -0.21239334 0.05630295 -0.112549014 0.20556863 0.16608451
-0.3215856 -0.10367599 -0.2574417 -0.096916385 0.0029935548 -0.22580002 -0.36860123 -0.26493135
-0.07682507 -0.07068747 0.34224597 0.3779417 0.17960009 -0.0011226861 0.22300565 0.10202318
-0.022036206 0.27859783 0.2650687 0.27949944 -0.15298444 -0.0071298857 0.08537656 0.11916486
-0.13090727 -0.16530636 0.14523268 0.027360402 0.12947242 -0.035498314 0.030634414 0.07116156
0.12702772 0.09167405 -0.27549845 0.12934427 -0.14243616 -0.17637727 -0.048855763 -0.080067754
0.18147591 -0.088623084 -0.22877903 0.06091865 -0.08579365 0.194993 0.14740378 -0.14906107
0.04408922 0.07847717 -0.05548292 0.023149256 0.17192306 0.15393327 0.020558678 0.05952373
0.33206213 0.07270444 0.23571497 0.20616844 -0.14759898 -0.16255534 0.22734655 0.11123855
0.20654194 0.123884335 0.20854115 0.36809525 0.38985336 -0.04020369 0.10876085 0.19395132
0.18524858 0.19897227 -0.08853451 -0.17276385 -0.21670254 -0.0607129 0.22058882 -0.052855562
-0.059671383 -0.26441386 -0.25925335 -0.023638148 0.21536255 0.24665482 0.008239969 0.17008556
0.23764347 0.08509465 0.15947771 0.25895303 0.23819028 0.096060194 -0.1814772 -0.20069085
-0.08958198 0.022310572 -0.06477615 0.09932426 0.007108198 -0.071993135 0.14970884 0.19552247
0.28558144 0.09420378 -0.07701478 0.256222 0.09624759 0.119346164 -0.31715918 -0.28011772
-0.19353886 0.023041641 0.32416004 -0.28865573 -0.2837732 0.044801995 0.22967951 0.3664587
-0.33541432 -0.069643594 0.018144082 0.28296024 0.1396663 -0.2962216 -0.085600235 0.276737
0.34319237 0.23629616 0.13311604 0.24870713 0.28938675 0.17287824 -0.069671586 0.102886856
-0.09528889 -0.05586575 -0.2541205 -0.15934081 -0.12756503 0.1045666 -0.27285066 -0.29704323
-0.16758585 -0.0585913 0.047214102 -0.10733093 -0.14153332 -0.009657318 0.2295207 -0.0731709
0.2425831 0.32620564 0.36601895 -0.04593153 0.20344698 0.07878436 0.3821029 0.04583517
0.24140288 0.1582719 -0.0014092862 -0.14694503 -0.15887012 0.2399567 0.19817545 0.032563146
-0.3868933 -0.07597263 0.33876732 0.35033873 0.11732285 -0.31351975 -0.24831876 0.31910703
0.023555823 0.24997397 -0.23621142 -0.24958023 0.2087248 0.013844462 0.021342233 0.09112216
0.0815727 0.16754991 -0.0051192893 -0.06472286 0.30079982 0.04680921 -0.1068101 0.07802164
-0.12430365 0.1379325 0.19053742 -0.21650636 -0.24414381 -0.11858828 -0.036000114 -0.02994475
-0.15597701 -0.11808286 -0.31162506 -0.27568194 -0.23899192 0.1774858 0.15178153 -0.09719149
-0.072254755 -0.03787821

conv1.bias f4 [10]
00000000: 3a1a cb3c 8ec5 95ba a76b 593e 62af 1a3e
00000010: e808 003e 2cdc 273d 52bc 1d3e adb9 3f3e
00000020: fe0d bebd 4394 1b3e
0.02479278 -0.0011426674 0.21232472 0.15105966 0.12503397 0.040981457 0.1540387 0.18723173
-0.092800125 0.15193276

conv2.weight f4 [20, 10, 5, 5]
00000000: 95a6 5f3b ae38 90bd 9398 0e3c dd86 32bd
00000010: d821 443d 7d12 41bd 2edb b5bc f803 fabc
00000020: 16dd 96bc 2399 993c 19c5 17bd fa0e 9dbd
00000030: e6bd d5bd 3aff bfbc fec1 20bd 3cb3 f8bc
00000040: 1890 70bd ec35 08bd 6afd acbb e516 17bd
00000050: df2d 8dbd f091 adbd d385 9fbd dc78 e33c
00000060: a2fe 3bbd 434f ed3c 6e2d c5bc d192 9ebd
00000070: 23b3 093d c081 343d b8e2 5a3c cd3c cdbd
00000080: be97 fabd e99c bebd aed7 d4bd 4517 52bd
00000090: 14c9 a7bd f687 e4bd d8a5 aabd 295c aabd
000000a0: 22cc aebd 9d5e fbbd 1320 f9bd 22ea debc
000000b0: fdec debd a040 4cbd 04ef 08be 83ad 6ebd
000000c0: 9930 06bd 4c21 87bd 7b71 df3d 3e68 68bd
000000d0: e91e 50bd 0d3a 1c3d 65f0 7a3d 59c4 873d
000000e0: 721c 83bd 57ce 7ebd 1c43 2cbc c434 5dbc
000000f0: a2b9 2d3d f01f b1bd b06c ffbc 856c a23d
00000100: ba09 4ebd 2c8e 01bd 61b0 3bbc fd95 dd3c
00000110: 52f6 9b3d 5285 f1bd c661 05bd a15a bbbd
00000120: 002c 8bbd 75dc 44bd d07d f1bc 0b1a 213c
00000130: fb9d 87bd d9db b0bd 9c58 8ebd 4615 713d
00000140: 859a d4bc b5ad 40bd 0369 9dbc d514 b6bb
00000150: b675 67bd 5fcd 89bd 9e71 4b3c 7690 cc3c
00000160: d49c 97bc 47fc bdbd a97a 143c 2f87 863c
00000170: 3cac 853d 4b2e 0ebc 719a e83b ac16 283c
00000180: 4c84 4abd 06c4 c4bd 02dd 49bc 87ff 96bb
00000190: abad 3e3d 5f20 25bd 01e4 dbbd 308f 77bd
000001a0: 55d8 2ebc eb51 433b af97 08be 9ac9 b1bd
000001b0: c2e3 96bd e5c0 22bd 4060 243c 79ed a5bd
000001c0: 35ba 76bd 43a2 813d 09ed ee3c d2b4 74bd
000001d0: 9fe6 e1bd a192 23bd 3150 c93d e110 e8bd
000001e0: d0d8 f8bd 94db 7bbd a9bc e73c ef9a 9e3d
000001f0: 8e64 c0bd d855 4e3c 86eb b3bc 5e10 eb3b
00000200: a96c 973a 3da8 aebc 729a 803d e464 78bd
00000210: ad7e c4bc 7573 95bc d317 253d 420c b93b
00000220: 1750 fbbd 599f 1c3b e755 e1bb bb24 b6bd
00000230: 01d7 56bd e3b7 0bbe 0015 46bd 72b2 0b3c
00000240: 59ce 20bc 9bbe fbbc 6ccf b5bd 6a62 c43c
00000250: 23e0 9c3d 6fbb c5bd a854 933d 0dc8 7e3b
00000260: 09bb b3bd fba3 553d b787 a5bb aa3c 093d
00000270: 01dc abbd d753 903d bf64 113e 25ff 353e
00000280: 09e4 253d c333 903c 5971 573d 8ccd f13d
00000290: 378c 883d be55 74bc 3875 5cbc 6154 9f3d
000002a0: 603a cc3d 5a2b b5bc 9123 5c3c b626 23bd
000002b0: 17cb 073e 667a 893c cd56 c1bd 59dd 143d
000002c0: 8b19 c0bd 4f99 df3c 7013 a1bd bb2f e43c
000002d0: a653 6fbb 54d6 893c 4bac 8dbb e7f6 cb3d
000002e0: de9a aebc ffef b7bd e4c7 ae3b 7403 633d
000002f0: de6f 873d 0a16 69bd b78f ec3c e573 db3b
00000300: 77dd 4ebd 9c54 c9bd 1654 e33c 503d afbc
00000310: 848c ddba 3c80 0fbe c2d2 27bc 2025 063d
00000320: 60cd 8c3d e135 cf3d 3d79 6abd d579 83bd
00000330: 15e3 df3b 101c 563d 05fe 733d 380f 97bd
00000340: c36a db3c d85d af3d 9b2c 203e 94ee ad3d
00000350: 9fdb 02be 5d2e 603d afaf d23d 1701 383d
00000360: 9587 ad3c a500 8dbd 0d16 cd3d 3313 123e
00000370: 0f4b 0d3e 8d95 94bc db3e fcbc c216 063e
00000380: 6b2d f73d 4fe8 3e3d 88fd 083d 2be1 7ebc
00000390: 2ae1 533d e902 3fbd 6cec 353c 8f91 593c
000003a0: c818 103c 920c 5abd c0c9 86bd f241 5f3c
000003b0: 5ca2 9bbd d6c6 adbd 9eed afbd 9b1c 3ebd
000003c0: 911a c7bc 99af 54bd 64a7 56bd 4538 d8bd
000003d0: f93c a53c 7ecc 34bd e081 85bd 5029 a03c
000003e0: b0eb 3fbd fce5 373d c15f 95bb 714f dabd
000003f0: 6028 b0bd 6ee2 81bd 9f7b edbc fe1f 90bd
0.003412639 -0.07042061 0.008703369 -0.043585647 0.04788384 -0.047136772 -0.02219924 -0.03051947
-0.018415969 0.01874978 -0.0370532 -0.07668872 -0.10436611 -0.023437131 -0.039247505 -0.030358903
-0.05873117 -0.03325455 -0.0052792327 -0.03688707 -0.06893515 -0.08475101 -0.07789197 0.027767591
-0.045897134 0.028968459 -0.024069514 -0.07742847 0.033618104 0.04406905 0.013359718 -0.100213625
-0.12235974 -0.09307272 -0.103927 -0.051291723 -0.081926495 -0.11158745 -0.083324134 -0.083183594
-0.08535029 -0.122739054 -0.12164321 -0.027211253 -0.10885046 -0.04986632 -0.13372427 -0.058270942
-0.03276119 -0.06598148 0.109103166 -0.056740038 -0.05081073 0.0381413 0.061264414 0.06629247
-0.0640191 -0.0622085 -0.010514047 -0.01350135 0.04241336 -0.0864867 -0.031179756 0.07930855
-0.050302245 -0.031629726 -0.011455626 0.027049059 0.07615341 -0.11793007 -0.032563947 -0.091481455
-0.06795502 -0.048061807 -0.029478937 0.009832869 -0.06621929 -0.086356826 -0.06950495 0.05885818
-0.025952587 -0.04704066 -0.019215113 -0.0055566826 -0.056508742 -0.067286246 0.012417225 0.024971228
-0.018507399 -0.09276634 0.009062448 0.016421882 0.06526992 -0.008678029 0.007098489 0.010259312
-0.049442574 -0.09607701 -0.012320759 -0.004608098 0.04655234 -0.040314075 -0.10736848 -0.06043929
-0.010671695 0.0029803466 -0.13339113 -0.086810306 -0.0736766 -0.03973474 0.010032713 -0.08101935
-0.060236175 0.06329777 0.029165762 -0.059742756 -0.110303156 -0.039934758 0.098297484 -0.113313444
-0.12150729 -0.061488703 0.028288202 0.07744395 -0.09394179 0.012593709 -0.021962892 0.007173582
0.0011552769 -0.021320457 0.06279458 -0.06064309 -0.023986185 -0.01824353 0.040305924 0.005647213
-0.12271135 0.002389869 -0.0068766954 -0.088937245 -0.052451137 -0.13644366 -0.04835987 0.008526431
-0.009814822 -0.030730536 -0.08877453 0.023972709 0.07659938 -0.09654891 0.07193881 0.0038876564
-0.087759085 0.052158337 -0.005051579 0.03350512 -0.08391572 0.07047241 0.14198588 0.17773111
0.040500674 0.017602807 0.05259833 0.11806783 0.06667369 -0.014913021 -0.0134556815 0.07779766
0.09972072 -0.022115398 0.013436214 -0.03983184 0.13261066 0.016781997 -0.09440384 0.036343906
-0.09379872 0.027294783 -0.078650355 0.02785479 -0.0036518364 0.016825832 -0.0043235174 0.09959202
-0.02131408 -0.089813225 0.0053338874 0.055423215 0.06613134 -0.056905784 0.028877122 0.0066971653
-0.050504174 -0.09830591 0.027750056 -0.02139154 -0.0016902839 -0.14013761 -0.01024312 0.03275025
0.0687511 0.101176985 -0.057244528 -0.06419722 0.00683249 0.052272856 0.059568424 -0.073759496
0.026784306 0.08562821 0.15642016 0.08492771 -0.12779091 0.054731715 0.10287415 0.044922914
0.021182815 -0.068848886 0.100139715 0.14265136 0.13798164 -0.018137718 -0.03079169 0.13094619
0.1206921 0.046608265 0.03344491 -0.015556614 0.051728405 -0.046633635 0.011103731 0.013279333
0.008794971 -0.053234644 -0.065814495 0.013626562 -0.07599327 -0.084851906 -0.08590244 -0.046414
-0.02430466 -0.051925275 -0.05240573 -0.105576076 0.020170676 -0.04414033 -0.06518912 0.01955095
-0.04685563 0.044897065 -0.004558534 -0.106596835 -0.08601451 -0.06342016 -0.028989611 -0.07037352

conv2.bias f4 [20]
00000000: 4307 123d 4142 3dbd 3083 7dbc 65e1 15bd
00000010: 8e40 40bd 0439 a6bc abd2 a03c a2b2 13bd
00000020: 35a7 88bd 29ce 003d 1c1d 36bd bdeb 7dbd
00000030: aff9 eabc 0aca 25bc 3757 5abd 6087 8bb9
00000040: 0c58 22bd cb77 90bc 326d 803c 4106 7b3b
0.035651457 -0.046205763 -0.015473172 -0.036591906 -0.046936564 -0.020290859 0.019631704 -0.03605903
-0.06672517 0.03144661 -0.044461355 -0.061992396 -0.028683512 -0.010118971 -0.05330583 -0.00026613008
-0.03963475 -0.017635247 0.015677068 0.0038303288

fc1.weight f4 [50, 320]
00000000: d8f2 263d 3d6f d5bc 5c53 bf3d 5e07 913d
00000010: 19b0 94bc 9d9f 73bb 973d 0c3d e246 8d3c
00000020: 8cf6 73bc 4d49 f2bc 3825 8dbc 9ce6 17bd
00000030: 7b2f 783c 6c6e 683d 66c3 f23b ec34 7b3d
00000040: 75d6 58bc b352 85bd a6d3 563b b174 44bb
00000050: bef9 073d cc57 0abd 81ce 763d 77d1 563d
00000060: 4fc4 1a3d 7dba ae3c 09af 4e3d 4842 843d
00000070: b59a a1bd 5778 20bd 5055 fdbc b5a7 ecbc
00000080: 23fb 043d e99c d1bb 4c94 debc 24e0 113d
00000090: d157 b63c ba45 793c 3ec5 33bd 50f6 08bd
000000a0: 9b03 40bd 01ef 09bd d196 7f3d 1bda 7bbc
000000b0: ea9c 28bd cead b83c 6af2 723d 0893 233d
000000c0: 48c9 aabc 5126 803c 1f92 27bd 530f ef3b
000000d0: e281 07bc 6a67 8dbc eb71 43bd 3248 96bc
000000e0: 9aa5 93bd 3e4c 1b3c a3fb 2b3d 2e9d 17bd
000000f0: 30cc 493d d582 ea3d 48d2 8a3d 197e edba
00000100: b6e1 4dbd ef60 39bd 969d 09bd 4ae9 4bbc
00000110: 7cda f0bc 4f70 e1bb 271c 583c 7461 cdbb
00000120: 5f1e 96bb 669d 513d 3412 2fbc 9602 a0bc
00000130: 59c9 103c 44fe da3d 2809 7e3c 6c4d a6bd
00000140: 880b 4bbc 0e85 ac3c 6e23 c9bc 6229 033d
00000150: c35c 863b 946f a7bb b8f0 53bc d55a 07bb
00000160: b049 543d 934f a93d f087 653d c6c8 3ebd
00000170: 1b59 043c 70be 083d b2d5 85bd 6e72 fdbd
00000180: 0965 a43c 762f 8fbc 310b 58bc 8701 513d
00000190: 10c6 e1bc 0d2a 58bd 5981 423d 42a3 f93c
000001a0: 4d28 a13d 7ded cc3c 2f08 bebc f81e d93c
000001b0: a3b5 883d 0636 923c 4c0b 3d3d 335c fa3c
000001c0: 7f4d ce3c 4b75 26bb 35ad 7e3c 51eb af3d
000001d0: f6cb 9d3d e441 853d a4a6 323b 65e0 413b
000001e0: 5b29 dc3c 7862 7d3c ba43 b73c 7d23 cabc
000001f0: 3a43 b0bd c52b 42bd cad5 893c 59fe 81bd
00000200: fb81 493d 5482 1b3d 0b58 ea3c a5e1 f73c
00000210: 0635 843d 9f45 06bd a85a cfbc 913d 183d
00000220: 9c1b 9ebb 5169 ef3c 1d99 8dbc ec30 c0bb
00000230: 4115 d7bc 18ba c6bc f537 b03c 1a22 533d
00000240: fcc8 1f3d 3fcd b63b 9a6e 6d3d 9563 ccbc
00000250: fece c8bb 4a69 7fbc 494f 903c bbfe 91bb
00000260: 87e2 74bc aa32 0fbd 2b76 e3bb 10bc b6ba
00000270: 9493 febb d175 763d 2203 ecbc 9435 16bc
00000280: 8e71 f8bc eb5d 673c bbe2 0f3d fa38 00bd
00000290: 25d3 69bd 4836 113d 0bac f8bc dae6 123d
000002a0: 3e9d d53d 9fbd cf3c bd54 123b 3682 c8bc
000002b0: 0625 8a3d ba03 41bd acb1 27bc 13ab 35bd
000002c0: 659a 8b3c da5e d63c 4674 703d 822b 823b
000002d0: 23fa 623d 6da4 d0ba 1703 803d c53c efbc
000002e0: 6fc8 403a b603 ba3c 1326 17bd eea2 88bd
000002f0: 2b53 0fbd 0925 3abc 12ba f6bc a4c7 6cbd
00000300: 2043 013d 43d9 013d 866f 7439 7fbf d93b
00000310: 5d38 d63c 9b06 acbc fec0 c83b 6db8 acbc
00000320: 9db3 4f3d 0a8e 233d 1a64 3f3d 2f06 afbc
00000330: 85c9 c3bd ccbb c7bc 3f07 053d 1c91 a53c
00000340: 4bc4 553d 362b 2dbc 62ff f23c fd06 26bb
00000350: bca4 6cbd 6b0f 953c a36d 06bc d2f3 86bd
00000360: f010 30bd 3b3b 043c 2b72 513d 4a9c b03c
00000370: 4ba6 613d eeb8 173d 9bc9 f9bc 0b82 71bd
00000380: df20 f13c e5f9 273b e9ce f23c ac13 7d3b
00000390: 0dcd 9fbd 8f6c 8e3b 7d3c 9d3c 0bff 11bd
000003a0: c479 17bd 0216 563c f5e6 1ebc 5a64 7c3c
000003b0: 41ac d93d 442b 1b3d bbd6 8ebd 7380 33bd
000003c0: b1dd c6bc 4572 6b3d 3be3 e4bb 67e5 e53d
000003d0: ecc5 92bd ad39 42bc ca6b 9a3c 93fa 1fbd
000003e0: dc3f 33bd f7cb ccbc c88c d2bb 40d0 84bd
000003f0: e720 0ebc 8aa5 2d3d b8aa 85bd 91d0 47bd
0.040758938 -0.02605402 0.093420714 0.07081483 -0.018150376 -0.0037173994 0.034238424 0.017245714
-0.014890324 -0.029575968 -0.017229661 -0.03708516 0.015148039 0.05674593 0.007408547 0.061329767
-0.013234724 -0.06509914 0.003277996 -0.002997678 0.033197157 -0.033775136 0.06025553 0.052445855
0.03778487 0.021329159 0.050459895 0.06457955 -0.07890836 -0.039177265 -0.03092447 -0.028888563
0.032466065 -0.006396879 -0.027170323 0.035614148 0.022258671 0.015214378 -0.043889277 -0.033438027
-0.04687844 -0.033675198 0.06239969 -0.015371825 -0.04116527 0.022543814 0.059313215 0.03993514
-0.020847932 0.01564327 -0.040910836 0.007295528 -0.008270713 -0.017261226 -0.047716063 -0.018344972
-0.0720932 0.009478627 0.041988026 -0.037015133 0.049266994 0.114507355 0.06778389 -0.0018119245
-0.050264083 -0.04525846 -0.03359755 -0.012445757 -0.029401056 -0.0068798433 0.013190306 -0.006267721
-0.0045812572 0.051175497 -0.010685492 -0.019532483 0.0088370675 0.106930286 0.015505113 -0.08120236
-0.012392886 0.02105954 -0.024553027 0.032021888 0.0041004135 -0.0051097367 -0.01293581 -0.0020653505
0.051828086 0.08267131 0.056037843 -0.04657819 0.008077885 0.03338474 -0.065349 -0.12375341
0.020067709 -0.017478686 -0.013186262 0.051026847 -0.027560264 -0.052774478 0.047486637 0.030473355
0.07869015 0.025015587 -0.023197262 0.026504025 0.066752695 0.017848026 0.04615335 0.030561542
0.025183437 -0.0025399502 0.015544225 0.08589805 0.07704918 0.06506708 0.002725997 0.0029583212
0.026875189 0.015465371 0.022371162 -0.024675125 -0.086065724 -0.047405023 0.016825575 -0.06347341
0.049196225 0.037966087 0.028606435 0.030258963 0.06455426 -0.03278124 -0.025311783 0.03716809
-0.0048250686 0.029225023 -0.017284924 -0.005865207 -0.026255252 -0.024258658 0.021511057 0.051546194
0.039010033 0.0055786665 0.057966806 -0.024949828 -0.006128191 -0.015589068 0.017615931 -0.004455415
-0.014946586 -0.034960426 -0.006941577 -0.0013941545 -0.0077690575 0.060170952 -0.028810088 -0.009168047
-0.030327585 0.014121513 0.035128336 -0.031304337 -0.05708613 0.035452157 -0.030355474 0.03586469
0.10430382 0.025358973 0.002232834 -0.024476152 0.06745343 -0.047122695 -0.010235231 -0.044352602
0.017041394 0.026168276 0.058704637 0.0039724717 0.05541433 -0.0015918143 0.06250589 -0.029203782
0.00073540857 0.022706848 -0.036901545 -0.06671701 -0.034991425 -0.011361369 -0.030118022 -0.05780758
0.031558156 0.031701338 0.00023311199 0.0066451426 0.026149923 -0.020999243 0.006126522 -0.021084035
0.050708402 0.03993038 0.046726324 -0.021365253 -0.09559921 -0.02438154 0.032477614 0.020210795
0.052189153 -0.010569384 0.029662792 -0.0025333755 -0.05777429 0.018195828 -0.00820485 -0.06589474
-0.042984903 0.008070762 0.05113427 0.0215589 0.05509023 0.037041597 -0.03049164 -0.05896191
0.02943462 0.0025631126 0.029639678 0.0038616462 -0.07802782 0.0043464373 0.019193882 -0.03564362
-0.03698136 0.0130667705 -0.009698619 0.015404785 0.10628558 0.03788306 -0.0697455 -0.04382367
-0.024275633 0.057482023 -0.006985096 0.11225396 -0.07166657 -0.011854571 0.018850226 -0.039057326
-0.043762073 -0.024999602 -0.006425474 -0.06485033 -0.008674837 0.0423942 -0.06526703 -0.04878289

fc1.bias f4 [50]
00000000: 0da3 443d c95a 033d 8248 f5b8 aa61 fcbc
00000010: c84f 453c d2fc 2d3b fc71 1c3d 2746 0f3d
00000020: 2f17 f03a 581a 09bc 6547 e33b 02be ecbc
00000030: aa9a 883d 9817 9f3c 02a3 733d 08e4 03bd
00000040: 7948 67b7 505b 583d de83 8e3c 725c b03d
00000050: 06d4 923d 5033 453c db64 233d 5cac cc3b
00000060: 2324 18bd d506 08bc b3f9 0ebd 9174 883d
00000070: e869 513c ef77 46bd 69ae fbbc 27a0 393d
00000080: cee7 b4bb 2ef5 c1bc 38d3 783d f6c6 743c
00000090: df41 fdba d54a 983d 2e19 393d 01e5 84bd
000000a0: 4543 513c 81eb 833a 4da2 86bd 0e4a 87bc
000000b0: 7d6e 823d 467b 973c 7885 703d 0b0a cd3b
000000c0: 3438 fbbb 62d6 a2bb
0.04800706 0.032069 -0.00011696016 -0.030808289 0.012042947 0.0026548398 0.03819464 0.034979012
0.0018317456 -0.008368097 0.006936001 -0.028899197 0.06670125 0.01942043 0.05948163 -0.03219989
-1.3785547e-05 0.052821457 0.017396864 0.086113825 0.071693465 0.01203616 0.039891105 0.006246133
-0.037143838 -0.00830241 -0.0349061 0.06662858 0.012781598 -0.04845422 -0.030722814 0.04531875
-0.0055207973 -0.023676481 0.06074831 0.014940014 -0.0019321999 0.07436148 0.04519003 -0.064889915
0.012772386 0.0010064692 -0.06573925 -0.016514804 0.0636873 0.018491399 0.058721036 0.0062573007
-0.007666612 -0.004969404

fc2.weight f4 [10, 50]
00000000: d414 89be ee2c 3dbe 288d 0abe 3455 0dbe
00000010: 86e0 0c3e d8d5 5f3d 3691 ddbd 35a2 24be
00000020: b173 953d b6ae b63c 2cfc c43d b28e 8ebd
00000030: b9d6 9c3e 7a9e 8d3e 57f6 283e ce27 bbbd
00000040: d6d8 f43d 3d23 78be f85c 0cbe a87c 44be
00000050: 723f fabd a141 50be 7943 ffbd 77db 7ebe
00000060: 58ee 413e 00b2 893d 01dc 9cbd 6862 d3bd
00000070: 534b 1f3e 0c4f b13d b5eb 1bbe d870 2e3e
00000080: f608 b53c 9219 dcba f667 8ebd a2fe 2dbe
00000090: ebec e1bd 511e 1dbe 6442 13bd 0d66 62bd
000000a0: 0a1f a73d b819 a53e e6be 10bd 58e9 93bd
000000b0: 32e8 073d 3aff 3f3d 9661 573e 381b 6a3e
000000c0: ef62 2dbe 0c23 f63d aaf8 7d3d 9293 163e
000000d0: ea84 72be bb52 3d3e 115d 963c fe73 70be
000000e0: 3b0c 42bd 9765 943d 2e2e aabc 9a0f a43c
000000f0: 2810 1c3e 746f 65be dfce 6d3d 12ff 99bd
00000100: 6288 79be 75b3 413d 4b58 08be 9a98 023e
00000110: 2779 0c3e 3f48 803e 03f4 253e 28ae 84be
00000120: 1a55 9abe d1bd 4e3e 7906 cfbc f6f4 a93e
00000130: 6f34 3a3e 8c7e 363e 77a2 37be 2988 1dbe
00000140: bc96 113e fbe1 88bd f184 17be 89b4 2bbe
00000150: 12fd 18bd 7fec 473e 3965 a43c 3f7f 1d3e
00000160: 1882 163e eb6a 71be bbff 593e 2165 0bbe
00000170: 666e 14be 2ab2 813e 9c32 58be 4fda 083d
00000180: 293a 083c ce96 d0bd 5e8b afbd 707c 30be
00000190: 9441 24be 6778 043e 00e3 063e c3fc 9e3b
000001a0: c3fd 033e d894 6b3d c63d 153e 8f95 2d3e
000001b0: 9666 fc3d 52b8 4d3e a869 6f3c 2a9f 733d
000001c0: b802 afbd 0865 60bd 812d 6bbd a316 33be
000001d0: 9968 d9bd 9962 163e 51bd 20be 6426 5fbe
000001e0: d3bf cfbd 9d1b cfbd 7f2b 1ebe 4fbb 2a3e
000001f0: 9cde ccbd 8786 ab3d 0022 09be 176c eebd
00000200: 73cd 0ebd 8902 69bd 5f3b 363e 32d3 c63d
00000210: 23e5 f9bd 4a28 3abe d79b 2c3e b4f1 a7bd
00000220: d736 243e 1e2c 2f3e 6415 15be 3b39 ddbd
00000230: 031e 403d dc47 873e 3249 033e a2d0 7fbc
00000240: 3246 d5bd 9765 d83d b539 d63d 7377 213e
00000250: 472f 133e da7d 043d 2a27 133e d2b7 27be
00000260: 5294 c13d cffc 253e 7f7b b1bd 14cc f23c
00000270: d611 03be 460e 383e 2581 12be d2f1 83bd
00000280: 9050 a1bc 81a6 11be e3a5 08be a433 3abd
00000290: 2e6f 91bd 4a84 2b3e 7dec b8bc f81d 163e
000002a0: cf01 083e 51b6 11be 6d0e 48be 8c61 05be
000002b0: 19a0 f43d 5f7a 6bbd f60f 083e 2e5d 2cbe
000002c0: df9a ccbd b1dc 603e 08f7 b9bd 6c04 f03d
000002d0: c631 223e f027 293e 080e 503e ee30 2ebd
000002e0: 15cc 4bbe 3950 33be 97d6 073e a01c 433e
000002f0: 6087 2dbe 993b 773e ff0f 8cbd ecc3 82bc
00000300: 9d9b adbd b23e c5bd 9d34 2c3d e26a fe3d
00000310: a40a 25bd 7fd3 87bd 83ac f43d 6726 c83d
00000320: 690a 113e 77a9 013e b73f 3a3e 9983 c6bd
00000330: 63a2 a33c e954 99be 6cd1 763e 7bec 283e
00000340: 25c1 e13d ba4c 62bd cc84 833e 5187 873e
00000350: d45b 5cbd 9385 6fbd c98f 01be 09f0 17be
00000360: bb87 55be 4ee0 26be 7a1c 603e a275 ed3d
00000370: 511b 543e f924 453e 4d63 123d 4e39 a5bd
00000380: 4f2b 9bbd c4dd 3dbc d3ac a53c ecc4 8f3d
00000390: 8875 5bbe cd44 58be 2dae 0bbe a50d 66be
000003a0: 6b2f e4bb f4f3 8c3e 39c5 8b3e 3d0d 303e
000003b0: cfb3 00be 7a76 a1bd f812 6dbd b59e 213d
000003c0: 8940 41be 9158 8f3d 6fe1 b0bd 2570 e2bd
000003d0: 959d 543e 18fa 1cbd e555 aa3d 7437 0c3d
000003e0: e3da 06be d0c3 84be f785 0b3e f734 2d3d
000003f0: 9190 d3bd d31e f2bd 3a8c 183e 79d9 16be
-0.26773703 -0.1847417 -0.1353041 -0.13802034 0.13757524 0.054647297 -0.108187124 -0.16077502
0.07297457 0.022300106 0.096184105 -0.06960811 0.3063257 0.2765997 0.16500221 -0.091384515
0.11955421 -0.24232192 -0.1370734 -0.19188178 -0.122191325 -0.20337535 -0.12464041 -0.24888407
0.18938577 0.06723404 -0.0765915 -0.10321504 0.15556078 0.08657655 -0.15226634 0.17035234
0.022099 -0.0016792289 -0.06953423 -0.16991666 -0.11031517 -0.15343596 -0.035951987 -0.055273104
0.08160217 0.32246184 -0.035338305 -0.07222241 0.033180423 0.046874262 0.2103332 0.22861946
-0.16932271 0.120184034 0.062004723 0.14704731 -0.23683515 0.1848859 0.018354924 -0.23481748
-0.047374945 0.07245939 -0.020773973 0.02002697 0.15240538 -0.22405797 0.058058616 -0.07519354
-0.24368432 0.047290284 -0.13314931 0.12753525 0.13718091 0.2505512 0.16206364 -0.2591412
-0.30143052 0.20189597 -0.025271641 0.33194703 0.18184064 0.17821711 -0.17933069 -0.15383972
0.14217657 -0.06683727 -0.14796807 -0.16768087 -0.03735072 0.1952381 0.020067798 0.15380572
0.14698064 -0.23575942 0.2128896 -0.13612796 -0.14495239 0.2533124 -0.21113056 0.03341132
0.008314648 -0.10185014 -0.08571504 -0.17234969 -0.16040641 0.12936555 0.13172531 0.004851909
0.12889771 0.057514995 0.14574346 0.16951583 0.12324254 0.20089844 0.014612593 0.059477963
-0.085454404 -0.05478385 -0.057416443 -0.17489104 -0.106156535 0.1468605 -0.15697218 -0.21791989
-0.101440094 -0.10112689 -0.1544628 0.16673015 -0.10003397 0.083752684 -0.13391876 -0.1164171
-0.0348639 -0.056887183 0.17796086 0.09708251 -0.122019075 -0.18179432 0.16856323 -0.08200398
0.16036545 0.17106673 -0.14558941 -0.108019315 0.04690362 0.26422012 0.1282089 -0.015613707
-0.10413779 0.10566252 0.104602255 0.15768223 0.14373504 0.032346584 0.14370409 -0.16378716
0.09452118 0.1620972 -0.08666133 0.029638328 -0.12799773 0.17974195 -0.14307077 -0.06442608
-0.019691736 -0.14223672 -0.13344531 -0.045459405 -0.07101284 0.16749683 -0.022573704 0.1465987
0.1328194 -0.14229704 -0.19536753 -0.13025492 0.11944599 -0.05748975 0.13287339 -0.1683242
-0.09990477 0.21959187 -0.090803206 0.117195934 0.158393 0.16519141 0.20317852 -0.04252713
-0.1990207 -0.17511071 0.13265453 0.19053888 -0.16946173 0.24143828 -0.068389885 -0.015962563
-0.084769465 -0.09631099 0.042042363 0.1242273 -0.04029335 -0.066321366 0.119469665 0.0977295
0.14164127 0.12662302 0.18188368 -0.09693069 0.019974893 -0.29947594 0.24103326 0.1649646
0.110231675 -0.055248953 0.25687253 0.26470426 -0.05379851 -0.058476996 -0.12652506 -0.1483766
-0.20852558 -0.16296503 0.21885863 0.11594702 0.20713545 0.19252385 0.03573923 -0.080675706
-0.0757662 -0.011588518 0.02022401 0.07019982 -0.21431553 -0.21119995 -0.13640662 -0.22466142
-0.0069636605 0.2752987 0.27298906 0.1719255 -0.12568592 -0.07883926 -0.057879418 0.039457995
-0.18872274 0.069993146 -0.08636748 -0.11056546 0.20763238 -0.038324445 0.08317164 0.03423257
-0.13169436 -0.25930643 0.13625322 0.04228684 -0.10330308 -0.118222855 0.14897242 -0.14731397

fc2.bias f4 [10]
00000000: 2aa1 eb3d e663 273e cc65 c4bd 7be0 32be
00000010: c786 61bd 7d4d a0bd 9f78 f2bc d1f4 91bd
00000020: 1a33 573e 91ea b43d
0.11505349 0.16346702 -0.09589729 -0.17468445 -0.055060174 -0.0782728 -0.029598532 -0.07126773
0.21015587 0.088338025
